warehousing/trained_policies/psac_non_stat_coll_pick.pt (torch, 106732 bytes, 54 tensors)

actor.lin1.weight f4 [64, 7]
-0.0075264396 0.097375095 0.25497282 0.47960642 -0.23680456 0.29588413 0.057877794 -0.19842696
-0.28384078 0.37710854 -0.22098255 0.5223776 -0.33847436 0.033052348 0.21038759 0.1395595
-0.40992954 0.14373532 0.026564267 -0.22555572 0.27585855 0.099719666 0.36774305 0.23738322
-0.41999844 -0.120876364 0.1561639 -0.06767587 0.104878746 0.055066172 -0.12283257 0.32223955
0.11939666 -0.13855386 0.26374465 -0.09172542 0.17542519 0.22741419 0.20950986 0.21758132
-0.011842242 -0.13466018 -0.37361664 0.04025565 0.12309029 0.29018202 -0.31158623 -0.26813173
-0.4766203 0.17210265 0.12761387 0.33768076 0.43366924 0.28859714 0.097294055 -0.04862782
0.3283322 0.06949647 0.4869946 -0.07051873 0.10053273 0.019804299 0.19041301 0.07482262
-0.2537433 -0.38094693 -0.28298348 -0.33257806 0.057588793 -0.23904285 -0.0036010474 0.13984704
-0.13944983 -0.09814116 -0.19354336 0.24157989 -0.14875972 0.28365082 -0.083737336 -0.28234595
0.029130803 -0.17761412 0.16092849 -0.03573688 0.06780139 0.3192359 0.25743523 -0.1121237
-0.17037898 0.16348277 0.13077907 0.129052 -0.13888867 0.13297355 0.22907169 -0.012026403
-0.011265852 0.37920606 0.32046688 -0.0010675404 -0.17850655 -0.4409556 0.32598907 0.014502521
-0.40153605 -0.3336584 -0.19532259 -0.1855179 -0.32971394 0.21630442 -0.011269375 -0.09340161
0.1908908 0.19628489 0.11677404 0.0042211446 -0.2634359 -0.09496436 0.30957437 -0.29999086
-0.07465033 -0.15688291 -0.15260129 0.46001533 -0.048499983 0.21439864 -0.40962428 -0.13070303
-0.33740136 0.12796007 0.3289112 0.09273675 0.15678588 0.086059175 0.14036532 -0.31154132
0.031674903 -0.37528905 -0.45752478 -0.05253676 0.0762471 0.24945855 -0.30341256 -0.22382884
-0.13805184 0.27482396 0.13110508 0.20141588 -0.114217505 0.1179963 0.34848824 0.57445484
-0.21125638 0.048660636 0.16541848 -0.062957846 0.18932457 -0.25468203 -0.2141187 -0.27466834
0.10707605 0.26090977 0.080057174 0.38902912 0.21139991 0.13064887 -0.29766834 -0.2311688
0.0073921494 0.0637043 0.14548059 -0.21636023 -0.31172216 -0.25311938 0.26984146 -0.1546429
-0.18725291 -0.31975406 0.11400294 -0.30558923 -0.02467016 0.10794855 0.13841258 -0.27632365
0.25955945 -0.19221474 -0.19037579 -0.20125985 0.3269008 -0.28098223 0.026201954 -0.25193495
-0.18400101 0.04782148 -0.082430966 -0.33218133 0.33626974 0.16027781 0.1546478 0.17997667
0.16556042 -0.0023509127 -0.14836155 0.042015515 -0.21234237 0.20648906 0.10157822 -0.12940262
-0.0662168 0.28936133 0.2447802 -0.15198976 0.12587088 -0.29520255 -0.24171218 0.0019354697
0.39166912 -0.119511135 -0.2805843 -0.26904938 0.08742615 -0.15455306 -0.23755881 0.11365277
0.25035375 0.1888988 -0.22102171 -0.44961017 -0.28962222 0.13605385 -0.15964194 0.28735626
0.15257446 -0.27385694 0.34376052 -0.059242044 0.29828066 0.32232878 0.24257736 -0.21590574
0.20447925 -0.30881187 0.267195 0.40210676 -0.003767331 0.30759138 0.17408451 0.102915674
0.033559594 0.2574132 -0.09704944 0.29274738 0.122561574 -0.09557892 -0.048036914 -0.065169185
00000000: 5aa0 f6bb 986c c73d cc8b 823e f98e f53e
00000010: e57c 72be 207e 973e 4411 6d3d 7030 4bbe
00000020: 9453 91be 5f14 c13e 4049 62be 8aba 053f
00000030: 834c adbe e661 073d d86f 573e b0e8 0e3e
00000040: 49e2 d1be 5a2f 133e 4e9d d93c 14f8 66be
00000050: 553d 8d3e d339 cc3d d148 bc3e 9614 733e
00000060: 090a d7be 078e f7bd 6ee9 1f3e a699 8abd
00000070: abca d63d 118d 613d a48f fbbd 95fc a43e
00000080: 3c86 f43d 10e1 0dbe 8a09 873e 89da bbbd
00000090: a9a2 333e 44df 683e c189 563e a3cd 5e3e
000000a0: f705 42bc 5ce4 09be ae4a bfbe 1ce3 243d
000000b0: c316 fc3d bd92 943e 3b88 9fbe 9048 89be
000000c0: 9307 f4be ad3b 303e 36ad 023e 7ee4 ac3e
000000d0: e509 de3e 01c3 933e 1b42 c73d f72d 47bd
000000e0: 281b a83e 2a54 8e3d 5b57 f93e 206c 90bd
000000f0: 1be4 cd3d a03c a23c a1fb 423e 9a3c 993d
00000100: a4ea 81be 7a0b c3be 36e3 90be ac47 aabe
00000110: 3ae2 6b3d a6c7 74be 8dff 6bbb 1034 0f3e
00000120: f0cb 0ebe 3cfe c8bd 3b30 46be b860 773e
00000130: 7854 18be ae3a 913e 7b7e abbd a68f 90be
00000140: b9a3 ee3c 7ae0 35be 70ca 243e d660 12bd
00000150: 75db 8a3d e372 a33e 8dce 833e 1ca1 e5bd
00000160: d477 2ebe 0768 273e f3ea 053e 3526 043e
00000170: d538 0ebe 382a 083e c591 6a3e 640a 45bc
00000180: 6894 38bc 4c27 c23e 3c14 a43e b6ec 8bba
00000190: 6cca 36be efc4 e1be 0ae8 a63e fb9b 6d3c
000001a0: 2296 cdbe 46d5 aabe a502 48be 68f8 3dbe
000001b0: 44d0 a8be e87e 5d3e 2fa3 38bc 5849 bfbd
000001c0: e178 433e e8fe 483e 3a27 ef3d 8751 8a3b
000001d0: 12e1 86be ad7c c2bd 8880 9e3e 6798 99be
000001e0: 46e2 98bd eaa5 20be 8343 1cbe 2187 eb3e
000001f0: eba7 46bd 518b 5b3e 46ba d1be 04d7 05be
00000200: dfbf acbe f707 033e 0c67 a83e c4ec bd3d
00000210: 7a8c 203e cb3f b03d edbb 0f3e 5882 9fbe
00000220: 8bbd 013d e325 c0be b040 eabe c930 57bd
00000230: 7127 9c3d 1072 7f3e e458 9bbe 6333 65be
00000240: 765d 0dbe bab5 8c3e 6940 063e f73f 4e3e
00000250: deea e9bd 0ba8 f13d 0d6d b23e 790f 133f
00000260: 9853 58be 6050 473d 7663 293e 0bf0 80bd
00000270: 4dde 413e af65 82be ef41 5bbe 54a1 8cbe
00000280: b04a db3d f795 853e 04f5 a33d d32e c73e
00000290: 3879 583e d1c8 053e fc67 98be 84b7 6cbe
000002a0: d839 f23b 6677 823d ddf8 143e 898d 5dbe
000002b0: 0c9a 9fbe dd98 81be a928 8a3e b55a 1ebe
000002c0: 3abf 3fbe ceb6 a3be 607a e93d 3176 9cbe
000002d0: 1319 cabc 2114 dd3d 07bc 0d3e 4b7a 8dbe
000002e0: fae4 843e f1d3 44be dff1 42be 1017 4ebe
000002f0: 8b5f a73e e7dc 8fbe 7ba5 d63c 9efd 80be
00000300: c36a 3cbe 75e0 433d 91d1 a8bd ac13 aabe
00000310: 8c2b ac3e de1f 243e fe5b 1e3e ce4b 383e
00000320: ac88 293e c511 1abb 17ec 17be 7618 2c3d
00000330: 4770 59be de71 533e 3e08 d03d 1f82 04be
00000340: ac9c 87bd 2b27 943e a9a7 7a3e 34a3 1bbe
00000350: 4ce4 003e ca24 97be 6683 77be 96af fd3a
00000360: db88 c83e 41c2 f4bd bfa8 8fbe d7c0 89be
00000370: 7b0c b33d 2843 1ebe 9e42 73be c9c2 e83d
00000380: 5e2e 803e b06e 413e 8453 62be 4e33 e6be
00000390: 5d49 94be b351 0b3e 2d79 23be 5c20 933e
000003a0: 7b3c 1c3e fa36 8cbe 6101 b03e c9a7 72bd
000003b0: 3eb8 983e 4708 a53e 3366 783e 6516 5dbe
000003c0: 0263 513e 971c 9ebe c8cd 883e f0e0 cd3e
000003d0: 53e5 76bb 9e7c 9d3e 3643 323e 74c5 d23d
000003e0: c975 093d aacb 833e dbc1 c6bd fce2 953e
000003f0: 9001 fb3d e1be c3bd 5bc2 44bd 6c77 85bd

actor.lin1.bias f4 [64]
-0.21062991 0.011052271 0.39805645 -0.0056331903 -0.0097948685 -0.08425465 0.12080557 0.05133647
-0.32491657 -0.30791798 0.26844108 0.01783398 0.35474107 0.09107516 0.3024993 0.1935347
0.2649171 -0.06252881 -0.014849105 -0.20740253 0.16360271 0.03767482 0.43204 0.08307639
-0.09363102 -0.07504875 0.34071407 0.40258232 0.122717254 0.32745036 -0.04192616 -0.23785087
0.3463016 -0.16841638 -0.3455747 -0.28540993 -0.409735 0.31346738 -0.2723915 -0.053441565
0.12521677 -0.25967878 0.21116845 0.27439898 -0.35941103 0.17309855 -0.0041517788 0.1456989
0.0647284 0.07047804 0.41468155 -0.04630389 -0.2810327 0.27875885 0.3887324 -0.058523912
0.37913495 -0.13782565 -0.36243635 -0.013063487 -0.3319565 -0.2065935 -0.03884915 0.048712887
00000000: 5eaf 57be 9614 353c 0ece cb3e a096 b8bb
00000010: a87a 20bc b48d acbd e968 f73d 3146 523d
00000020: 775b a6be 6da7 9dbe 1c71 893e 9118 923c
00000030: 9fa0 b53e 9d85 ba3d 30e1 9a3e f62d 463e
00000040: 37a3 873e 1b0f 80bd a949 73bc 5461 54be
00000050: 7887 273e e950 1a3d 5934 dd3e f423 aa3d
00000060: 9fc1 bfbd 29b3 99bd 1372 ae3e 451f ce3e
00000070: 2f53 fb3d 93a7 a73e c4ba 2bbd 2e8f 73be
00000080: 714e b13e 5875 2cbe 2bef b0be 4021 92be
00000090: c9c8 d1be cc7e a03e e676 8bbe 8be5 5abd
000000a0: d338 003e 9ef4 84be 8b3c 583e 067e 8c3e
000000b0: b904 b8be bf40 313e a50b 88bb 1832 153e
000000c0: 5390 843d ca56 903d 2451 d43e 26a9 3dbd
000000d0: 85e3 8fbe 7bb9 8e3e ef07 c73e c5b6 6fbd
000000e0: fa1d c23e 2b22 0dbe 4291 b9be 3c08 56bc
000000f0: 34f6 a9be 3f8d 53be 4920 1fbd 2a87 473d

actor.batch_norm.weight f4 [64]
0.82181734 0.80225074 0.69962066 0.78770655 0.8027536 0.71115494 0.7203481 0.7304215
0.75840485 0.80934465 0.75403434 0.6780416 0.7280062 0.7604013 0.8406561 0.7220824
0.8048316 0.81063056 0.7012959 0.8033757 0.9102517 0.772067 0.81406647 0.75837827
0.75649905 0.7270898 0.7477221 0.86038274 0.8522645 0.74590576 0.7751039 0.8285008
0.82236934 0.73693144 0.723563 0.7270462 0.7151925 0.8089409 0.74687934 0.84795797
0.8457783 0.71841526 0.84263015 0.78034973 0.8828703 0.701221 0.6678876 0.700027
0.7481888 0.73302215 0.7752142 0.7651512 0.76755583 0.7006595 0.7423713 0.71492505
0.8647911 0.7749885 0.7513329 0.7723961 0.7695701 0.8323006 0.705111 0.7804868
00000000: 9f62 523f 4e60 4d3f 571a 333f 23a7 493f
00000010: 4381 4d3f 400e 363f bc68 383f e7fc 3a3f
00000020: d226 423f 3631 4f3f 6508 413f 2294 2d3f
00000030: 9d5e 3a3f a9a9 423f 3d35 573f 64da 383f
00000040: 7209 4e3f 7c85 4f3f 2188 333f 08aa 4d3f
00000050: 4106 693f 2fa6 453f a966 503f 1425 423f
00000060: eca9 413f 8f22 3a3f b76a 3f3f 0b42 5c3f
00000070: 022e 5a3f aef3 3e3f 366d 463f a118 543f
00000080: cc86 523f 8aa7 3c3f 6d3b 393f b31f 3a3f
00000090: db16 373f c016 4f3f 7c33 3f3f c613 593f
000000a0: ed84 583f 10ea 373f 9cb6 573f 00c5 473f
000000b0: ca03 623f 3883 333f affa 2a3f f834 333f
000000c0: 4d89 3f3f 57a7 3b3f 7074 463f f3e0 433f
000000d0: 8a7e 443f 6c5e 333f 0c0c 3e3f 5405 373f
000000e0: f362 5d3f a565 463f 5a57 403f c0bb 453f
000000f0: 8c02 453f a711 553f 2882 343f fccd 473f

actor.batch_norm.bias f4 [64]
-0.18175565 -0.1589784 -0.25960785 -0.21293603 -0.18129703 -0.27900368 -0.2013679 -0.23899724
-0.23359895 -0.18274878 -0.24392101 -0.311651 -0.2620895 -0.20995048 -0.18905686 -0.26672828
-0.21847086 -0.18089302 -0.28768855 -0.20592286 -0.11403835 -0.20493358 -0.19281739 -0.23523098
-0.23441024 -0.26241785 -0.22526118 -0.17015316 -0.19461283 -0.21215805 -0.19998889 -0.15918264
-0.16612121 -0.21904403 -0.25778362 -0.2740689 -0.2748621 -0.22725707 -0.23939939 -0.18562302
-0.15012503 -0.27322775 -0.14622058 -0.22897363 -0.16233183 -0.27951387 -0.30231467 -0.27578536
-0.23819128 -0.23042613 -0.22596076 -0.2198827 -0.22344281 -0.29296795 -0.25167346 -0.27748188
-0.16932082 -0.23648041 -0.2358647 -0.20170212 -0.2387232 -0.15979196 -0.23923631 -0.2436431
00000000: 271e 3abe 3ccb 22be 52eb 84be e70b 5abe
00000010: eea5 39be 92d9 8ebe 6333 4ebe b1bb 74be
00000020: 9034 6fbe 7f22 3bbe 6ec6 79be b890 9fbe
00000030: 9830 86be 42fd 56be 1f98 41be 9c90 88be
00000040: d3b6 5fbe 053c 39be ea4b 93be 71dd 52be
00000050: f08c e9bd 1cda 51be ec71 45be 64e0 70be
00000060: 3d09 70be a25b 86be deaa 66be a13c 2ebe
00000070: 9648 47be f63f 59be e3c9 4cbe c600 23be
00000080: ae1b 2abe 144d 60be 37fc 83be c252 8cbe
00000090: baba 8cbe 14b6 68be 1d25 75be f613 3ebe
000000a0: 60ba 19be 82e4 8bbe d9ba 15be 1078 6abe
000000b0: 513a 26be 711c 8fbe fdc8 9abe bd33 8dbe
000000c0: 6ae8 73be d4f4 6bbe 4262 67be ee28 61be
000000d0: 31ce 64be e5ff 95be 58db 80be 1b12 8ebe
000000e0: 7062 2dbe ec27 72be 8486 71be 008b 4ebe
000000f0: db73 74be 81a0 23be 5dfa 74be 947d 79be

actor.batch_norm.running_mean f4 [64]
3.901715 -0.6772354 -1.5586178 8.052828 -0.34529394 4.853451 2.0201821 5.5242577
5.6893897 -8.20771 0.9865083 -4.1245594 7.91242 -0.777004 -1.5719011 -4.7499113
4.5389853 -2.8095644 -5.3623023 -1.128443 0.9084157 -0.1241773 1.5431783 5.263556
2.2631214 -6.148246 -1.3027031 -1.7312169 4.1953006 -0.9584561 -1.2194315 -7.3199043
1.0327216 -0.3903556 -1.3640709 3.4083664 -2.4165368 0.2885478 0.38455805 -2.2099526
-5.10141 -3.1880863 -0.40132335 1.4318343 4.1914663 -1.5408435 -1.2474623 6.6103573
2.4314816 -1.1756492 2.0491593 -4.4719806 3.350444 -3.838148 -2.2814295 -1.7839711
2.303399 -0.18798046 -7.4728546 3.1945143 1.1985419 -6.5012045 2.8954139 8.372152
00000000: b3b5 7940 4d5f 2dbf ca80 c7bf 62d8 0041
00000010: 5eca b0be 784f 9b40 aa4a 0140 b8c6 b040
00000020: 7b0f b640 c852 03c1 cf8b 7c3f 64fc 83c0
00000030: 8b32 fd40 bce9 46bf 0e34 c9bf 46ff 97c0
00000040: 5e3f 9140 e7cf 33c0 fb97 abc0 d270 90bf
00000050: ee8d 683f ab50 febd de86 c53f 0d6f a840
00000060: fbd6 1040 6ebe c4c0 fabe a6bf 8498 ddbf
00000070: e73f 8640 615d 75bf 5516 9cbf a83c eac0
00000080: 3930 843f b0dc c7be e099 aebf ad22 5a40
00000090: 8aa8 1ac0 8abc 933e cbe4 c43e dd6f 0dc0
000000a0: c03e a3c0 9b09 4cc0 417a cdbe 5946 b73f
000000b0: 7e20 8640 5c3a c5bf d8ac 9fbf 0c88 d340
000000c0: 659d 1b40 ac7b 96bf 6d25 0340 771a 8fc0
000000d0: ad6d 5640 38a4 75c0 f102 12c0 2a59 e4bf
000000e0: e46a 1340 f37d 40be a021 efc0 ec72 4c40
000000f0: d269 993f de09 d0c0 764e 3940 56f4 0541

actor.batch_norm.running_var f4 [64]
15.699061 13.027422 9.347346 67.30843 0.8372745 23.342365 3.3595536 27.941427
34.637863 59.97855 3.0643508 16.201492 58.18725 3.2529812 3.459614 23.967384
19.25995 7.0586476 26.973516 5.285779 9.5889225 1.7424939 2.2829378 25.324535
5.3374186 35.137997 12.212161 5.1515245 16.418383 7.5045166 4.103265 50.048306
5.590719 4.6613674 6.762511 14.10384 4.1849303 1.8036216 2.027836 4.8550463
27.096579 10.930888 5.80014 3.659241 25.407434 5.158571 8.390918 42.202255
5.1811247 12.378003 3.606797 19.79649 12.284411 17.698849 6.810292 5.800695
10.183859 9.566783 48.35446 13.134839 3.5290296 38.199432 9.074601 80.01305
00000000: 5b2f 7b41 5270 5041 bb8e 1541 eb9d 8642
00000010: 9f57 563f 2abd ba41 ed02 5740 0b88 df41
00000020: 2c8d 0a42 09ea 6f42 531e 4440 a89c 8141
00000030: bebf 6842 d830 5040 516a 5d40 34bd bf41
00000040: 6114 9a41 71e0 e140 c3c9 d741 1a25 a940
00000050: 3a6c 1941 0a0a df3f a71b 1240 a698 ca41
00000060: 22cc aa40 4f8d 0c42 0365 4341 4ad9 a440
00000070: d958 8341 0025 f040 f24d 8340 7731 4842
00000080: 2ce7 b240 ec29 9540 7d66 d840 54a9 6141
00000090: f3ea 8540 13dd e63f 11c8 0140 8a5c 9b40
000000a0: cbc5 d841 ebe4 2e41 bf9a b940 0131 6a40
000000b0: 6d42 cb41 0313 a540 3341 0641 1ccf 2842
000000c0: c6cb a540 4d0c 4641 c3d5 6640 365f 9e41
000000d0: f38c 4441 3e97 8d41 e9ed d940 4b9f b940
000000e0: 16f1 2241 8b11 1941 f86a 4142 4d28 5241
000000f0: 9fdb 6140 38cc 1842 9131 1141 ae06 a042

actor.lin2.weight f4 [64, 128]
-0.08501914 0.030801453 -0.05668617 0.032120734 0.024754003 -0.036633957 -0.077229306 -0.04559209
-0.019818448 0.00021004677 0.049298294 0.0214051 0.087110616 -0.0025715828 -0.062461197 -0.025902484
-0.07022679 -0.068255514 0.0015796944 -0.05552592 0.030441381 -0.016024165 -0.014499113 0.034256123
-0.032401517 -0.052135177 0.024134204 0.037364148 -0.035143178 -0.08631862 -0.07764262 -0.07420708
-0.012737349 0.028058715 0.021333575 0.06699433 0.071538605 0.015279099 0.014807187 0.018389158
-0.05945251 0.07185883 -0.050880823 0.028958201 0.085341476 -0.023107365 0.08209478 0.07939606
-0.05803445 0.044948243 0.012742676 0.086802535 -0.08507123 -0.038037036 0.01291275 -0.07430974
-0.045185067 -0.06885484 -0.008287169 0.025139973 0.063256465 -0.084100515 -0.019330196 -0.031648584
0.08300754 0.0405735 0.03231696 -0.060897075 -0.07647849 -0.038751666 0.0045546517 -0.032063782
0.06214098 -0.06314276 0.05233521 0.031719938 0.048275076 -0.032866374 0.04238478 -0.06858689
-0.078004554 0.060936876 0.05667489 0.021326602 0.077683516 -0.06007832 -0.07105039 -0.016266257
0.08211153 0.042097606 -0.011215992 -0.038844693 -0.060736947 0.07183962 0.051008366 0.014053427
0.045711182 0.07853084 0.053179003 0.0852172 0.08645459 -0.0052292347 0.046647318 -0.06726773
-0.0741875 0.05578985 0.009035461 -0.08448717 -0.04535181 0.011745982 -0.060386613 -0.07643898
0.036486022 -0.05719438 0.029894002 -0.031105679 -0.07165832 -0.08234619 -0.08033262 0.06944976
0.0018592849 0.07748278 0.06929361 -0.0059700385 0.06364886 -0.059082683 -0.05220882 0.010645121
0.0101154 0.031603992 -0.06387479 0.010669403 0.050498523 -0.00826247 0.04601095 -0.018283166
0.038515933 0.008338973 0.044161834 0.005827233 0.008800663 0.0056977198 0.08383516 -0.03708874
0.06096358 -0.015066013 0.029103674 -0.047703773 0.06118033 0.031619184 0.05354307 -0.06559801
0.016709372 -0.0881213 -0.050205957 0.054496773 -0.071288265 -0.026405148 -0.0591505 0.025356218
0.016869634 0.069033496 -0.017519295 0.025432251 -0.013517402 0.02055648 0.085318185 -0.049716223
0.056467287 0.0064704865 -0.08378215 0.060984693 0.06048318 -0.040076036 0.028886154 -0.019917466
0.04784336 -0.022780403 -0.05403775 0.036084965 -0.0761326 -0.08078385 0.084991165 0.01655113
-0.041586623 0.056679063 -0.07686153 0.018386185 0.023145892 0.066729896 0.067676775 -0.03948987
-0.05440295 0.0024723858 0.015425831 -0.046696525 0.037705503 0.06308035 -0.02761276 0.06953309
-0.046257537 0.058987133 -0.068065874 0.081825055 -0.02091787 0.02451311 -0.04375337 0.024835102
0.022658177 0.05931876 0.041680045 0.023887135 -0.013805024 -0.08108824 -0.075315654 -0.037160527
-0.00020900369 -0.0591046 0.030829996 0.08567337 -0.046844758 -0.028246049 0.014627993 0.03365846
-0.060198598 0.06960321 0.06324459 0.030116364 0.023507565 0.009872787 0.031125814 -0.0017456412
-0.0626531 0.06470718 0.040059038 -0.059729166 0.00091952085 -0.016741477 0.080078416 -0.015651293
0.0490477 -0.022210397 0.050759844 -0.009399347 -0.05001324 -0.072915025 0.007487811 -0.019887619
-0.038213186 0.021192774 0.018916816 -0.08744877 -0.02867267 -0.07306978 -0.006482482 0.004461594
00000000: 841e aebd 5453 fc3c c22f 68bd 0891 033d
00000010: e8c8 ca3c 7d0d 16bd 662a 9ebd c5be 3abd
00000020: 4c5a a2bc 0040 5c39 02ed 493d c059 af3c
00000030: 0d67 b23d 0088 28bb 50d7 7fbd 7231 d4bc
00000040: 10d3 8fbd 8cc9 8bbd c00d cf3a 266f 63bd
00000050: 3460 f93c 1c45 83bc b08d 6dbc 2650 0c3d
00000060: 74b7 04bd b28b 55bd 18b5 c53c 260b 193d
00000070: 4bf2 0fbd d1c7 b0bd 1803 9fbd e2f9 97bd
00000080: 50b0 50bc 64db e53c c0c3 ae3c 5334 893d
00000090: d582 923d 3055 7a3c d899 723c dca4 963c
000000a0: 7a84 73bd b92a 933d 6968 50bd c039 ed3c
000000b0: 83c7 ae3d a84b bdbc 4f21 a83d 679a a23d
000000c0: 88b5 6dbd a61b 383d a8c6 503c 87c5 b13d
000000d0: d339 aebd b9cc 1bbd 0090 533c b42f 98bd
000000e0: fa13 39bd c403 8dbd e8c6 07bc 58f2 cd3c
000000f0: 9b8c 813d e43c acbd 5c5a 9ebc f2a1 01bd
00000100: dbff a93d 6630 263d ca5e 043d 366f 79bd
00000110: c1a0 9cbd 11ba 1ebd 303f 953b 5055 03bd
00000120: 8a87 7e3d fe50 81bd 725d 563d c4ec 013d
00000130: 16bc 453d e49e 06bd aa9b 2d3d 4977 8cbd
00000140: dac0 9fbd f298 793d ee23 683d 20b5 ae3c
00000150: 8918 9f3d af14 76bd de82 91bd d040 85bc
00000160: 172a a83d 8a6e 2c3d 48c3 37bc 9d1b 1fbd
00000170: 4ec7 78bd a720 933d 26ee 503d 5840 663c
00000180: a63b 3b3d c7d4 a03d 3ad2 593d 5b86 ae3d
00000190: 1b0f b13d 005a abbb 4211 3f3d aac3 89bd
000001a0: 9eef 97bd e683 643d 7809 143c 9c07 adbd
000001b0: d2c2 39bd 3872 403c f457 77bd 0a8c 9cbd
000001c0: 5e72 153d a744 6abd 44e4 f43c 56d1 febc
000001d0: 99c1 92bd 1fa5 a8bd 6e85 a4bd ad3b 8e3d
000001e0: 40b3 f33a 4baf 9e3d cfe9 8d3d 50a0 c3bb
000001f0: 555a 823d af00 72bd ead8 55bd e068 2e3c
00000200: 10bb 253c 3073 013d c9d0 82bd b8ce 2e3c
00000210: 8ad7 4e3d 505f 07bc fa75 3c3d 94c6 95bc
00000220: e2c2 1d3d 30a0 083c 0ae3 343d 60f2 be3b
00000230: a830 103c f0b3 ba3b c5b1 ab3d 5dea 17bd
00000240: f2b4 793d 70d7 76bc d46a ee3c 0865 43bd
00000250: 3a98 7a3d 1e83 013d fa4f 5b3d 4058 86bd
00000260: 18e2 883c f178 b4bd c3a4 4dbd 0238 5f3d
00000270: 95ff 91bd 9c4f d8bc cb47 72bd d8b7 cf3c
00000280: 3032 8a3c 6f61 8d3d a084 8fbc 4c57 d03c
00000290: 1878 5dbc 1066 a83c 4dbb ae3d 3da3 4bbd
000002a0: 3e4a 673d 6006 d43b fa95 abbd 16cb 793d
000002b0: 36bd 773d c526 24bd a8a2 ec3c f429 a3bc
000002c0: 66f7 433d f89d babc b056 5dbd d4cd 133d
000002d0: 69eb 9bbd 0172 a5bd d90f ae3d 3c96 873c
000002e0: bc56 2abd 4e28 683d 9469 9dbd a09e 963c
000002f0: 749c bd3c afa9 883d 1f9a 8a3d 21c0 21bd
00000300: a1d5 5ebd c007 223b a0bc 7c3c db44 3fbd
00000310: 1671 1a3d 4530 813d 2834 e2bc 5d67 8e3d
00000320: 8b78 3dbd 7e9c 713d 1f66 8bbd e593 a73d
00000330: f45b abbc b8cf c83c bc36 33bd fc72 cb3c
00000340: a49d b93c 3af8 723d b2b8 2a3d f4ae c33c
00000350: 782e 62bc 9711 a6bd 183f 9abd a335 18bd
00000360: 0028 5bb9 aa17 72bd 308f fc3c 8575 af3d
00000370: 4ae0 3fbd 4264 e7bc 40aa 6f3c 74dd 093d
00000380: ce92 76bd 218c 8e3d 6186 813d 98b6 f63c
00000390: f092 c03c 78c1 213c 90fb fe3c 00ce e4ba
000003a0: 4550 80bd 3385 843d f214 243d 92a6 74bd
000003b0: 000c 713a 6c25 89bc 2700 a43d 2437 80bc
000003c0: 3ee6 483d 94f2 b5bc 8ee9 4f3d b8ff 19bc
000003d0: afda 4cbd 7954 95bd 505c f53b 5ceb a2bc
000003e0: 6e85 1cbd 789c ad3c 70f7 9a3c 5718 b3bd
000003f0: f2e2 eabc 9ca5 95bd 006b d4bb 9032 923b

actor.lin2.bias f4 [64]
0.086582325 0.06458094 0.07219822 0.08694718 0.063484214 -0.069342494 -0.017241716 0.040993787
-0.034505043 -0.035262436 0.0679856 0.052375995 -0.006313756 0.031804763 -0.07316314 -0.062051013
0.052874647 -0.0474964 -0.082122624 -0.020616151 0.08802282 0.025559373 -0.045494065 -0.047308065
-0.01036489 -0.017210022 0.017816558 -0.078770004 0.06666493 0.007334888 -0.078438014 -0.010470808
-0.05388249 -0.056856297 0.018004388 0.04354485 0.08126547 0.036398374 -0.010400124 -0.06218305
0.033771984 -0.06230089 -0.08324188 0.006248884 0.024230286 -0.0116785765 -0.0043816715 -0.004351504
-0.026757315 -0.029303774 -0.056496173 0.05974274 0.0581496 0.020322137 0.07924654 -0.058004938
0.025027059 0.008503117 -0.05099912 0.07522429 -0.053364072 -0.06471159 0.05383537 0.08056303
00000000: 1352 b13d 0343 843d a9dc 933d 5d11 b23d
00000010: 0304 823d 7003 8ebd 803e 8dbc 1ae9 273d
00000020: 2955 0dbd 586f 10bd 093c 8b3d 3688 563d
00000030: a0e3 cebb b645 023d 8ed6 95bd 3429 7ebd
00000040: 1693 583d 968b 42bd e82f a8bd 34e3 a8bc
00000050: 4f45 b43d e461 d13c fc57 3abd 1ac6 41bd
00000060: 80d1 29bc 08fc 8cbc 08f4 913c 2b52 a1bd
00000070: 9f87 883d 8059 f03b 1ca4 a0bd c08d 2bbc
00000080: e3b3 5cbd 26e2 68bd f07d 933c 165c 323d
00000090: 836e a63d 7616 153d 4865 2abc a7b3 7ebd
000000a0: 7e54 0a3d 382f 7fbd b87a aabd 70c3 cc3b
000000b0: 987e c63c 8057 3fbc 2094 8fbb 1097 8ebb
000000c0: 2832 dbbc 780e f0bc 8868 67bd ceb4 743d
000000d0: 462e 6e3d 9c7a a63c 034c a23d 9696 6dbd
000000e0: 8c05 cd3c a850 0b3c 74e4 50bd 310f 9a3d
000000f0: 4994 5abd 8387 84bd 7a82 5c3d 3bfe a43d

actor.lin_dist.weight f4 [64, 4]
0.17918462 -0.3357038 -0.16897997 -0.1395782 -0.22370772 0.016468048 0.47093883 -0.24523067
0.45807812 -0.45769835 -0.21350205 0.003884375 0.29723775 -0.19578499 0.33929396 0.31313968
0.38774467 0.17197694 0.14645174 -0.31010368 0.1792638 -0.21442026 0.14653462 0.28075296
-0.35145253 0.6764305 0.3260794 -0.0052144527 -0.12959903 -0.40851957 -0.14496732 0.47995758
-0.22713736 -0.2373169 0.05934289 -0.49194568 0.07026866 0.28557053 -0.42630684 -0.44777495
0.18513182 -0.16891795 -0.19785005 -0.40427208 0.62321883 -0.004395783 0.16503918 -0.2031616
0.40893775 0.33278352 -0.36080986 0.30393547 -0.34639114 -0.13971186 0.23378605 -0.27959597
-0.2015444 -0.27997875 0.02193904 -0.11252302 -0.09301719 -0.07993192 -0.10891176 -0.032767136
0.19730127 -0.23846878 -0.23325805 0.04560444 -0.4164012 0.13602842 -0.20798089 0.04435097
-0.1437791 0.35088465 0.44359055 -0.19475394 0.26293418 -0.03517425 -0.26746643 0.21297348
-0.2566613 0.4636425 -0.22333112 -0.17407142 -0.09935802 0.044649184 -0.17539084 0.40647858
0.1694466 -0.032764614 0.24266075 -0.4084261 -0.14532673 0.013411999 0.05975146 0.061461926
-0.24368486 0.071287386 0.41738144 -0.23796219 0.03221357 0.6979836 0.44156232 0.17918397
0.49149045 -0.33021533 -0.15248108 0.23549141 0.45296246 0.40121788 0.28547734 0.0021667094
-0.39734137 -0.08962178 -0.32696432 -0.19365597 -0.34763128 -0.22858202 -0.400203 -0.113250494
0.35790014 -0.25262326 -0.11863601 -0.16222475 -0.15114327 -0.24162716 0.3716472 -0.39456302
0.4307443 0.47885543 0.077681094 -0.15195122 0.114922464 -0.15982497 -0.28829688 0.43755826
-0.4658311 -0.25652823 0.08107814 -0.4534849 0.21029204 0.45293465 0.43907243 0.3929569
-0.41177428 -0.48909616 -0.23174953 0.47124255 0.26121056 0.14716715 0.29916894 0.063869
-0.042372346 -0.058413625 -0.15850872 -0.23859662 0.16265513 -0.26047364 0.22253224 0.39967304
0.35718393 0.56505567 -0.2811786 -0.4185859 0.18492866 -0.4328306 -0.09662952 0.052906875
0.17749321 -0.2707368 -0.15756696 0.11717707 -0.05717793 0.16134048 -0.112989806 -0.1361601
0.2865254 -0.29657698 -0.03376192 0.0042960644 0.12085057 -0.3668388 0.46280706 -0.18204734
0.09309961 -0.11110031 0.27052215 0.32261944 -0.27203724 -0.21500622 0.004266227 0.20426206
-0.02843817 -0.12561873 -0.39504206 0.16590616 0.42045224 -0.08166808 -0.08178435 0.3154898
0.13618293 -0.0041568796 -0.4707095 -0.14760438 -0.37513834 -0.41546208 0.08756183 -0.25616473
0.44896933 0.54814136 -0.37886786 -0.25971124 0.30640143 -0.29453766 -0.096589714 0.3403218
-0.19587308 -0.36953455 -0.24484777 0.24395989 -0.49306118 -0.29738832 -0.3088661 -0.24019815
0.54305416 0.34509912 -0.17898089 -0.37805474 0.020781888 0.030325843 -0.11367824 0.34549892
0.20517349 -0.13145268 0.1568842 0.28635544 -0.20434427 -0.254201 0.53045 -0.17169116
-0.37236845 0.41721824 -0.25445583 -0.2577188 0.052417625 0.45567167 -0.32934862 -0.16557392
-0.40310395 0.65822095 -0.28220567 -0.2736641 0.007587731 0.11933404 -0.055357397 0.37518936
00000000: 2c7c 373e 5ee1 abbe 1609 2dbe 96ed 0ebe
00000010: a313 65be 00e8 863c e51e f13e c01d 7bbe
00000020: 3789 ea3e 7057 eabe 48a0 5abe 0091 7e3b
00000030: 8c2f 983e dc7b 48be f0b7 ad3e d853 a03e
00000040: 7886 c63e b91a 303e 72f7 153e e9c5 9ebe
00000050: ee90 373e fc90 5bbe 2c0d 163e dabe 8f3e
00000060: 96f1 b3be 8d2a 2d3f e1f3 a63e 00de aabb
00000070: 9cb5 04be 7a29 d1be 5072 14be 00bd f53e
00000080: b296 68be 3403 73be 8811 733d 4ee0 fbbe
00000090: 04e9 8f3d 4d36 923e e444 dabe c242 e5be
000000a0: 3293 3d3e d4f8 2cbe 3499 4abe c0fc cebe
000000b0: 458b 1f3f 800a 90bb 0800 293e 9809 50be
000000c0: 4a60 d13e 9a62 aa3e 12bc b8be 6e9d 9b3e
000000d0: 2e5a b1be a010 0fbe 9c65 6f3e 3427 8fbe
000000e0: a861 4ebe 6059 8fbe 80b9 b33c 7872 e6bd
000000f0: cc7f bebd 59b3 a3bd 210d dfbd d536 06bd
00000100: 5809 4a3e 2931 74be 33db 6ebe b9cb 3a3d
00000110: 8a32 d5be 094b 0b3e f1f8 54be 5da9 353d
00000120: d43a 13be 27a7 b33e 4d1e e33e 946d 47be
00000130: 4f9f 863e e012 10bd 5cf1 88be b815 5a3e
00000140: 1c69 83be 8d62 ed3e eab0 64be c73f 32be
00000150: 387c cbbd 10e2 363d a899 33be f61d d03e
00000160: 6983 2d3e 3034 06bd 0f7c 783e 3a1d d1be
00000170: 88d0 14be 00be 5b3c f2bd 743d 80bf 7b3d
00000180: 8688 79be 1fff 913d 05b3 d53e 5cac 73be
00000190: 60f2 033d 0eaf 323f 7514 e23e 017c 373e
000001a0: a3a4 fb3e fc11 a9be 0024 1cbe a924 713e
000001b0: b2ea e73e 6e6c cd3e 162a 923e 5aff 0d3b
000001c0: 5470 cbbe a08b b7bd de67 a7be c04d 46be
000001d0: bafc b1be 6811 6abe 68e7 ccbe e0ef e7bd
000001e0: b03e b73e d657 81be 70f7 f2bd 3f1e 26be
000001f0: 4dc5 1abe 1c6d 77be 8b48 be3e 2a04 cabe
00000200: 848a dc3e 8a2c f53e 4417 9f3d 1a99 1bbe
00000210: 785c eb3d 28a9 23be a69b 93be a307 e03e
00000220: 6a81 eebe ab57 83be 4c0c a63d 2c2f e8be
00000230: cc56 573e 0de7 e73e 1ace e03e a631 c93e
00000240: 14d4 d2be d06a fabe c04f 6dbe b446 f13e
00000250: 64bd 853e fcb2 163e ac2c 993e c0cd 823d
00000260: a08e 2dbd 2043 6fbd 1c50 22be ac52 74be
00000270: 118f 263e cd5c 85be 7edf 633e f2a1 cc3e
00000280: d0e0 b63e 7da7 103f a4f6 8fbe e450 d6be
00000290: f05d 3d3e f99b ddbe b3e5 c5bd e1b4 583d
000002a0: c8c0 353e 049e 8abe 3c59 21be 88fa ef3d
000002b0: 6833 6abd 7036 253e 3367 e7bd 8e6d 0bbe
000002c0: 75b3 923e f0d8 97be f049 0abd 00c6 8c3b
000002d0: 8180 f73d 4cd2 bbbe 0cf5 ec3e 9e6a 3abe
000002e0: 02ab be3d 8f88 e3bd e181 8a3e 602e a53e
000002f0: 7748 8bbe 972a 5cbe b5cb 8b3b 132a 513e
00000300: 2af7 e8bc 32a2 00be f442 cabe 4ee3 293e
00000310: 8445 d73e 9841 a7bd 8e7e a7bd e187 a13e
00000320: 8a73 0b3e 6f36 88bb d600 f1be 9a25 17be
00000330: 2212 c0be 72b7 d4be 9e53 b33d 0628 83be
00000340: 4fdf e53e fe52 0c3f f8fa c1be dff8 84be
00000350: a6e0 9c3e a4cd 96be d4d0 c5bd a93e ae3e
00000360: f492 48be a233 bdbe 60b9 7abe 9fd0 793e
00000370: 8472 fcbe 4843 98be b323 9ebe 81f6 75be
00000380: 9905 0b3f d5b0 b03e c446 37be 6490 c1be
00000390: c73e aa3c e76d f83c 23d0 e8bd 3ce5 b03e
000003a0: 0019 523e 889b 06be 40a6 203e 2e9d 923e
000003b0: a03f 51be a226 82be 92cb 073f cfcf 2fbe
000003c0: 14a7 bebe a19d d53e 0948 82be b8f3 83be
000003d0: ddb3 563d cc4d e93e 62a0 a8be 368c 29be
000003e0: a463 cebe 2b81 283f 437d 90be b31d 8cbe
000003f0: 80a2 f83b 6865 f43d 70be 62bd d218 c03e

actor.lin_dist.bias f4 [64]
0.07861864 0.20169039 -0.21589309 -0.36775517 0.23694183 -0.011457501 -0.1712323 -0.2539762
0.14351633 0.2754629 -0.19184354 -0.19482955 0.21473229 -0.43744737 -0.10647619 0.02665227
0.19372447 -0.029468946 -0.12979737 -0.12391186 0.17986134 -0.42136335 -0.22474726 -0.08631319
0.20304379 -0.20392342 -0.2955854 0.11317077 -0.46490973 -0.012587309 0.091651075 0.14000966
0.18812734 -0.31657538 0.44037032 -0.49319497 -0.25856954 -0.3281516 -0.4636817 0.20634782
0.3644101 0.2864518 -0.20248938 0.26079947 -0.3506355 0.25215256 0.10551995 0.13842936
0.100600034 0.015358705 0.12488271 0.3373526 0.16966505 0.230903 0.08995815 0.20938607
-0.1568725 0.014623371 -0.43782848 0.15229893 0.21538171 0.09254296 0.2237969 -0.4925248
00000000: cf02 a13d ed87 4e3e 1413 5dbe 684a bcbe
00000010: e1a0 723e 3eb8 3bbc 8557 2fbe 2b09 82be
00000020: f2f5 123e 7909 8d3e a272 44be 6681 47be
00000030: c8e2 5b3e 1af9 dfbe 3010 dabd dd55 da3c
00000040: b55f 463e dc68 f1bc 9ae9 04be 80c5 fdbd
00000050: 922d 383e f0bc d7be 2524 66be f8c4 b0bd
00000060: b6ea 4f3e 4dd1 50be f856 97be 14c6 e73d
00000070: a608 eebe 003b 4ebc 8fb3 bb3d b15e 0f3e
00000080: 74a4 403e 2b16 a2be 3878 e13e 0d84 fcbe
00000090: 3a63 84be 7d03 a8be b067 edbe d84c 533e
000000a0: f693 ba3e cfa9 923e 6059 4fbe 8287 853e
000000b0: 7f86 b3be 241a 813e d81a d83d 6dc0 0d3e
000000c0: 6407 ce3d 14a3 7b3c 82c2 ff3d 7bb9 ac3e
000000d0: adbc 2d3e d671 6c3e fb3b b83d 4d69 563e
000000e0: 2fa3 20be dd96 6f3c 0e2b e0be 40f4 1b3e
000000f0: 068d 5c3e 2a87 bd3d 042b 653e 362c fcbe

actor.lin_time.weight f4 [64, 1]
-0.78372866 0.58509034 -0.46210572 -0.09364867 0.26817432 0.823091 0.02050674 0.5659694
-0.62347215 -0.5633439 -0.74002886 -0.14272738 -0.14587623 -0.40616012 0.23888882 0.78685075
-0.30106318 0.1388279 -0.6497396 -0.93295425 -0.8647107 -0.2472162 -0.25302142 -0.24806772
-0.06425452 0.92858285 0.12119043 -0.74927 0.376207 -0.6007101 0.6635357 -0.257738
-0.5025611 -0.7861568 -0.48591268 -0.10527992 -0.55212414 -0.0044911914 -0.49157906 0.7224256
-0.071297154 -0.17688853 0.54866636 -0.1579606 -0.8544744 0.27992463 0.5036962 -0.31338167
0.38825402 0.5159995 0.3289063 0.8809801 -0.8987074 -0.09357635 0.63037777 -0.8964704
0.21233904 -0.5316233 0.12122314 -0.34071004 0.6693582 0.33235246 -0.7459563 -0.8748245
00000000: 71a2 48bf 7bc8 153f 1f99 ecbe e0ca bfbd
00000010: 254e 893e 17b6 523f c0fd a73c 5fe3 103f
00000020: df9b 1fbf 4e37 10bf 8872 3dbf 2027 12be
00000030: 9460 15be 38f4 cfbe 459f 743e 0d6f 493f
00000040: f424 9abe e728 0e3e 5655 26bf 17d6 6ebf
00000050: ae5d 5dbf 3e26 7dbe 068c 81be 7705 7ebe
00000060: e097 83bd 9bb7 6d3f b032 f83d 29d0 3fbf
00000070: 349e c03e 23c8 19bf 7add 293f 3cf6 83be
00000080: d8a7 00bf 9241 49bf 8cc9 f8be 009d d7bd
00000090: 0258 0dbf d82a 93bb 40b0 fbbe e2f0 383f
000000a0: 3e04 92bd 4422 35be 6675 0c3f 6cc0 21be
000000b0: d6be 5abf 4852 8f3e 3cf2 003f 9073 a0be
000000c0: 3bc9 c63e 8b18 043f 6866 a83e e987 613f
000000d0: b011 66bf f5a4 bfbd 7060 213f 167f 65bf
000000e0: 686f 593e 7718 08bf d643 f83d 8c71 aebe
000000f0: 0f5b 2b3f 1a2a aa3e fef6 3ebf 80f4 5fbf

actor.lin_time.bias f4 [64]
0.37123898 -0.28865448 0.40874094 0.054933306 0.7235362 -0.22101206 -0.8979571 0.15666422
0.16990015 -0.85072446 -0.60405004 0.018450562 0.49596414 0.13723086 0.27440444 -0.09168447
0.09670137 0.6376752 0.19294858 0.16763505 0.6234916 0.72474664 0.07086807 0.038514607
-0.9593767 -0.41134074 -0.5851661 0.26075706 -0.46671462 0.42668217 0.02089181 -0.27210903
-0.3209895 -0.66933787 -0.27446914 -0.3543986 -0.6086823 0.032392114 -0.75802267 0.4452247
0.05576339 0.02902934 -0.95281994 0.43669367 0.4439648 -0.7716539 0.12910163 -0.021299332
0.07415654 0.55438364 -0.883083 -0.39647132 0.43308896 0.2986304 -0.65410244 -0.0048110485
-0.62415075 0.0065110424 0.7258694 -0.045856595 -0.68118495 -0.17395028 -0.7350942 0.62036955
00000000: 0913 be3e 85ca 93be 7e46 d13e bf01 613d
00000010: ab39 393f fc50 62be 84e0 65bf 966c 203e
00000020: 4efa 2d3e 14c9 59bf 06a3 1abf a225 973c
00000030: 03ef fd3e 3f86 0c3e bd7e 8c3e 11c5 bbbd
00000040: 5e0b c63d af3e 233f 5094 453e 86a8 2b3e
00000050: 259d 1f3f ff88 393f 4723 913d 7ec1 1d3d
00000060: b699 75bf 419b d2be 72cd 15bf f381 853e
00000070: 38f5 eebe 1676 da3e 4d25 ab3c e051 8bbe
00000080: bc58 a4be ba59 2bbf 3887 8cbe bc73 b5be
00000090: 9ad2 1bbf 98ad 043d c60d 42bf 7ef4 e33e
000000a0: 2768 643d f0ce ed3c 02ec 73bf 5096 df3e
000000b0: 5b4f e33e 1c8b 45bf 3833 043e f07b aebc
000000c0: 62df 973d 16ec 0d3f ba11 62bf 4afe cabe
000000d0: d6bd dd3e 15e6 983e 4273 27bf 00a6 9dbb
000000e0: 58c8 1fbf 955a d53b 94d2 393f 20d4 3bbd
000000f0: 2362 2ebf 0620 32be 222f 3cbf 8ad0 1e3f

actor.out_layers.0.weight f4 [20, 192]
-0.034066584 0.019021453 -0.0036598493 -0.03705734 0.033071883 0.072829776 -0.018914515 -0.0048304712
0.054556783 0.05406747 -0.03770942 -0.025338905 -0.034145314 0.029421404 0.024835555 0.0002749851
0.03880147 -0.035403747 -0.04793282 0.042887535 -0.0634725 0.028010147 0.099334985 0.063270226
0.06733124 -0.03425049 0.0018710518 0.029869085 0.03663367 0.06501441 0.015278387 -0.046397757
-0.06306191 0.025026867 -0.028717583 0.03539338 -0.060258925 0.07485601 -0.034150742 0.06745875
-0.011481083 -0.05257233 0.07109273 0.05443039 -0.028050112 -0.01971225 -0.016544508 0.063430525
-0.020518625 -0.038083427 0.08689401 -0.06056487 -0.035485502 -0.047091115 -0.040094014 -0.05521183
0.002533982 0.0382641 -0.0045791315 -0.014050703 -0.053653155 -0.0121649895 0.035125546 0.08131099
-0.074732706 0.0019802463 -0.09318747 0.03197197 -0.18629558 -0.027048564 -0.037682507 0.0764341
-0.2035189 -0.0077774283 0.049665857 -0.16215667 0.014100323 -0.056594256 0.029573783 -0.0032495367
0.039472684 0.0003156488 0.0044192756 0.02001347 0.0887072 0.047074746 -0.06680541 0.027451796
-0.071683854 -0.028729996 -0.021173984 0.029053457 0.023422055 0.019475497 -0.10893072 -0.012510266
-0.076920316 0.09847364 -0.00028310984 -0.06202523 0.11721882 -0.078201 -0.0549992 -0.038812805
-0.0711639 -0.057587314 0.06248322 0.04551055 -0.011421302 -0.12458633 -0.055014294 0.03434037
0.0017911391 0.040167216 -0.0021867037 -0.021604579 -0.071097836 -0.0492397 -0.007720952 -0.036856484
-0.12277007 0.10490353 -0.06821621 -0.085655786 0.06077974 0.055932358 0.024463328 0.026118174
0.10559472 0.015243019 -0.044725917 0.0027486428 -0.036787547 -0.07751989 0.012185238 0.0024425688
0.09025926 0.010062255 0.014446475 -0.0039012802 0.028637895 0.019289544 0.010898948 -0.021331847
0.03399213 -0.030997852 0.15053257 0.15348074 0.11362219 -0.025483891 0.098585345 0.02347236
0.06709051 0.057015788 0.05763784 0.1512328 -0.0062669665 0.11028808 -0.061419662 -0.0117556825
0.007087566 -0.04124295 -0.012936357 0.047825076 0.016644128 -0.017977457 -0.007097237 -0.10184793
-0.05550443 0.037542887 0.023992546 -0.022852877 0.072362885 0.057422444 0.008342601 0.06388171
-0.0056168283 -0.09564181 0.0383358 0.02552215 0.02341286 0.020738345 -0.06390556 -0.04502791
-0.06979545 0.18254454 -0.05224523 0.056011617 -0.009761198 -0.016463717 -0.025174886 0.05066305
0.028735785 0.011483015 -0.03964511 -0.0711591 0.03143864 0.020659627 -0.049525674 -0.00060239615
0.025288712 0.02408984 -0.012759406 0.04432683 -0.036071945 0.022285048 -0.067302965 0.015877567
-0.041342743 0.038174048 0.027700158 0.029605187 -0.018684698 -0.007015892 0.040351883 0.052270092
0.011404401 -0.0489289 0.016932892 0.016454848 -0.08676063 -0.077288084 0.043782845 -0.012138644
0.0030518463 -0.039852228 -0.029942665 -0.00073193153 -0.059458103 -0.06013432 0.0011882442 -0.027395433
-0.0005234252 0.00012969767 0.04195313 0.06886426 -0.0869078 0.010613587 -0.03993358 -0.058485366
0.035571847 0.05060154 0.03786846 0.045722257 0.037442073 0.052998547 -0.0046054255 -0.004147643
0.016223203 0.029018743 -0.011682426 -0.030891864 0.044448003 0.036020663 -0.023529733 -0.06548433
00000000: 6789 0bbd e1d2 9b3c 15da 6fbb 70c9 17bd
00000010: 6276 073d c727 953d 9df2 9abc ee48 9ebb
00000020: ef76 5f3d da75 5d3d 3175 1abd 8993 cfbc
00000030: f5db 0bbd 2805 f13c ef73 cb3c e02b 9039
00000040: 4aee 1e3d 8503 11bd 3455 44bd d7aa 2f3d
00000050: dffd 81bd 8975 e53c 2470 cb3d d293 813d
00000060: f6e4 893d 3e4a 0cbd 153e f53a 03b0 f43c
00000070: 300d 163d 4626 853d 3352 7a3c 930b 3ebd
00000080: 9a26 81bd 2505 cd3c 2341 ebbc a6f8 103d
00000090: 10d2 76bd 1c4e 993d a6e1 0bbd d027 8a3d
000000a0: 271b 3cbc 1556 57bd 1199 913d 67f2 5e3d
000000b0: 59c9 e5bc 967b a1bc 5988 87bc dde7 813d
000000c0: ad16 a8bc 5efd 1bbd 7df5 b13d de12 78bd
000000d0: 3f59 11bd 9de2 40bd 9f39 24bd cd25 62bd
000000e0: 2a11 263b d1ba 1c3d 8a0c 96bb eb34 66bc
000000f0: 69c3 5bbd aa4f 47bc cedf 0f3d 6086 a63d
00000100: 760d 99bd 05c7 013b 13d9 bebd 0af5 023d
00000110: 45c4 3ebe f394 ddbc f958 1abd 7b89 9c3d
00000120: 4267 50be ccd9 febb 6d6e 4b3d 660c 26be
00000130: 0b05 673c 61cf 67bd b844 f23c 2ef6 54bb
00000140: 1cae 213d aa7d a539 92cf 903b 4af3 a33c
00000150: 1fac b53d 73d1 403d 46d1 88bd 97e2 e03c
00000160: fcce 92bd 2b5b ebbc 1075 adbc 8401 ee3c
00000170: 9cdf bf3c 148b 9f3c 1217 dfbd dcf7 4cbc
00000180: 6688 9dbd 8cac c93d 5c6e 94b9 2b0e 7ebd
00000190: 6c10 f03d d927 a0bd d746 61bd 2dfa 1ebd
000001a0: 61be 91bd ade0 6bbd 68ee 7f3d 4569 3a3d
000001b0: 6a20 3bbc 1e27 ffbd ab56 61bd 7da8 0c3d
000001c0: a8c4 ea3a 6186 243d cd4e 0fbb 16fc b0bc
000001d0: be9b 91bd 91af 49bd 0a00 fdbb d3f6 16bd
000001e0: e06e fbbd a9d7 d63d f1b4 8bbd 4d6c afbd
000001f0: 2df4 783d 5419 653d 5167 c83c c8f5 d53c
00000200: 0b42 d83d dbbd 793c 8632 37bd 9322 343b
00000210: 8aae 16bd c0c2 9ebd 98a4 473c 8113 203b
00000220: d9d9 b83d 28dc 243c e8b0 6c3c 9fac 7fbb
00000230: 059a ea3c 1b05 9e3c 8091 323c 20c0 aebc
00000240: 553b 0b3d 35ef fdbc 3625 1a3e 0e2a 1d3e
00000250: c0b2 e83d 98c3 d0bc 1de7 c93d 1b49 c03c
00000260: c066 893d 6389 693d a815 6c3d c5dc 1a3e
00000270: 205b cdbb b8de e13d 2f93 7bbd e89a 40bc
00000280: d03e e83b 5eee 28bd 04f3 53bc 3ae4 433d
00000290: 4459 883c 7645 93bc f08f e8bb a695 d0bd
000002a0: 9d58 63bd 92c6 193d 048c c43c f535 bbbc
000002b0: fe32 943d cc33 6b3d 68af 083c 6ad4 823d
000002c0: 5f0d b8bb dadf c3bd 0006 1d3d d413 d13c
000002d0: 54cc bf3c 76e3 a93c ebe0 82bd 306f 38bd
000002e0: ebf0 8ebd f5ec 3a3e 18ff 55bd 706c 653d
000002f0: 6fed 1fbc ebde 86bc 903b cebc 0f84 4f3d
00000300: 4f67 eb3c 4123 3c3c e962 22bd ddbb 91bd
00000310: cec5 003d 613e a93c 6fdb 4abd 1fea 1dba
00000320: 462a cf3c 0e58 c53c d40c 51bc 0d90 353d
00000330: 2dc0 13bd 228f b63c 23d6 89bd ac11 823c
00000340: 0257 29bd 645c 1c3d 71eb e23c 9486 f23c
00000350: a710 99bc 91e5 e5bb 0448 253d 2a19 563d
00000360: 86d9 3a3c ac69 48bd d9b6 8a3c 51cc 863c
00000370: 8faf b1bd 3749 9ebd a455 333d 2ae1 46bc
00000380: 7c01 483b 173c 23bd 524a f5bc 18df 3fba
00000390: 578a 73bd 684f 76bd dcbe 9b3a 636c e0bc
000003a0: 7836 09ba 74ff 0739 0cd7 2b3d b508 8d3d
000003b0: b7fc b1bd 9ce4 2d3c 6591 23bd 5a8e 6fbd
000003c0: c9b3 113d 8f43 4f3d f51b 1b3d 4347 3b3d
000003d0: dc5c 193d 0115 593d 1ce9 96bb f4e8 87bb
000003e0: 86e6 843c b7b8 ed3c a567 3fbc ef10 fdbc
000003f0: 1c0f 363d 678a 133d 6dc1 c0bc a61c 86bd

actor.out_layers.0.bias f4 [20]
-0.002780284 0.002309907 0.093091436 -0.038979698 0.0067441612 0.018554937 -0.0424063 -0.12882085
0.04507348 0.07221474 0.055423345 -0.0076087564 -0.06611148 -0.0049313675 0.061879136 0.01599651
0.03083257 -0.06544837 -0.03344428 0.015314789
00000000: 6d35 36bb cf61 173b b9a6 be3d 2da9 1fbd
00000010: 20fe dc3b 8600 983c 3ab2 2dbd 9de9 03be
00000020: f89e 383d 52e5 933d 9703 633d e052 f9bb
00000030: 7565 87bd 4f97 a1bb fa74 7d3d 1d0b 833c
00000040: 9694 fc3c cc09 86bd dffc 08bd e1ea 7a3c

critic.lin1.weight f4 [64, 7]
-0.2209461 -0.22229277 0.0058931955 0.618827 -0.39644647 0.2773894 0.4672638 -0.12876683
-0.05414375 0.37676936 -0.13845277 0.4812822 -0.17294396 0.3573867 0.17990813 -0.28705627
-0.069538794 0.78815055 -0.11982119 0.7240682 0.53812397 -0.5068192 0.20398276 0.16723126
0.31397998 -0.25876373 0.032482605 -0.06819188 0.24802384 -0.20591936 -0.07741984 0.635701
0.15644471 0.5998426 -0.07864659 -0.30889103 -0.0066316216 0.19122715 -0.69889176 -0.22472216
0.2070364 0.31616154 -0.2927323 -0.35983065 -0.07771112 0.70697045 -0.22013396 0.5335486
0.6815772 0.19080557 -0.063036054 -0.09497426 0.660417 -0.39064685 0.62745297 0.7309412
-0.1333691 -0.051563483 0.42255118 -0.11369337 0.26507604 -0.12983823 0.06830202 -0.2446178
0.20411646 0.38489476 -0.85644174 0.18510073 -0.53567386 0.1863903 -0.13675568 -0.17032245
-0.0703297 0.08404519 -0.2507961 0.5891009 0.25240296 -0.26606312 0.09007664 0.285433
0.21952015 0.2905225 0.37477955 0.61431396 -0.08527804 0.31839857 -0.009918201 0.14621921
-0.40502372 -0.035542034 0.277412 0.1368725 -0.014233903 0.3409124 -0.6462852 0.28520438
-0.019767504 -0.38002425 0.1259887 -0.059844587 0.32161614 -0.43563637 -0.22702356 0.4533016
0.26905584 -0.26124 0.18364796 0.3939148 -0.6571511 0.2612757 -0.31135622 0.1935587
-0.38069502 -0.0011590411 0.43406737 -0.10738079 0.36381897 0.49609506 0.5523994 0.21348354
-0.113540314 -0.14195175 0.8960708 -0.054247316 0.72168934 0.44909096 -0.20992947 -0.13502453
-0.025913842 1.0777377 0.1745934 0.52789366 0.20274444 -0.36707097 -0.04943413 -0.26259297
0.6377743 0.184672 0.31450123 0.10987304 -0.18718041 0.1302243 0.24030286 0.15028922
-0.40860417 0.076964006 0.23914318 0.29974532 -0.03260695 -0.2099713 -0.019652516 0.2522313
0.014918192 0.35124186 0.45651168 -0.34004283 -0.095114216 0.23177807 0.19744597 0.8084555
0.42746216 -0.031430352 -0.0049209804 -0.19981813 0.9825571 0.4845946 0.13380949 0.2408757
-0.21673755 -0.014905913 0.4669548 -0.61429733 0.3567862 -0.28586882 -0.2403405 -0.5004611
-0.019524628 0.52100146 0.3002151 -0.18277265 0.027635118 0.3271335 0.06668681 0.22224294
0.0049356963 0.26404452 0.12964325 0.4872211 0.23188348 0.03743522 0.008173475 0.38866052
-0.4997739 -0.06490105 -0.21283709 0.122918285 -0.037703753 -0.28200454 -0.34642184 0.0011118058
-0.408175 0.2080798 0.6395027 -0.35303956 0.21938469 2.0222797e-06 -0.35322824 0.18927273
-0.09569511 0.21971199 0.45581692 -0.40308514 0.044236876 0.7405003 0.20576769 0.15959436
0.38195786 0.21363643 -0.04729267 -0.025579067 -0.33281276 -0.032409668 0.34354475 0.37342605
-0.32059613 0.017683672 0.11788654 -0.8675917 0.29919556 -0.25480112 0.36091515 0.40464005
-0.07014863 -0.092695355 0.7896473 -0.05067803 0.4505309 0.6907975 0.29572827 -0.037184447
-0.3375804 0.09814966 0.20440851 0.41056392 -0.04664031 -0.11358021 0.44159824 0.14154829
0.3311371 0.0813818 0.46012172 0.50986207 -0.31217286 0.23923905 0.13724896 -0.015211768
00000000: b23f 62be b7a0 63be b51b c13b 726b 1e3f
00000010: 08fb cabe fc05 8e3e 333d ef3e 74db 03be
00000020: d6c5 5dbd eae7 c03e 90c6 0dbe 9f6a f63e
00000030: 3918 31be 64fb b63e d639 383e 0af9 92be
00000040: 5b6a 8ebd 3cc4 493f d064 f5bd 895c 393f
00000050: 7ec2 093f e7be 01bf dbe0 503e ac3e 2b3e
00000060: fcc1 a03e ae7c 84be 7b0c 053d 2fa8 8bbd
00000070: f6f9 7d3e 86dc 52be 4b8e 9ebd 4dbd 223f
00000080: 0b33 203e 498f 193f 7711 a1bd f726 9ebe
00000090: 134e d9bb 0dd1 433e 92ea 32bf 911d 66be
000000a0: 5a01 543e eddf a13e 02e1 95be b93b b8be
000000b0: 0227 9fbd 04fc 343f cc6a 61be a496 083f
000000c0: d87b 2e3f 8962 433e 0c19 81bd dd81 c2bd
000000d0: 1711 293f dd02 c8be c2a0 203f f61e 3b3f
000000e0: e991 08be 3b34 53bd a158 d83e 12d8 e8bd
000000f0: 0cb8 873e 50f4 04be eee1 8b3d 177d 7abe
00000100: e803 513e ed10 c53e c43f 5bbf 0c8b 3d3e
00000110: ec21 09bf 19dd 3e3e ae09 0cbe 0269 2ebe
00000120: 0509 90bd e21f ac3d 5968 80be 51cf 163f
00000130: f63a 813e 6d39 88be 1a7a b83d 4624 923e
00000140: e4c9 603e 5dbf 943e 1be3 bf3e ae43 1d3f
00000150: 41a6 aebd 2305 a33e f37f 22bc 7dba 153e
00000160: 455f cfbe 8694 11bd f208 8e3e 4e28 0c3e
00000170: 5135 69bc 128c ae3e f272 25bf 4f06 923e
00000180: 76ef a1bc 8a92 c2be 2f03 013e 991f 75bd
00000190: dfaa a43e bb0b dfbe dd78 68be 2617 e83e
000001a0: b0c1 893e 40c1 85be 360e 3c3e 33af c93e
000001b0: 0e3b 28bf eec5 853e 156a 9fbe 4034 463e
000001c0: 75ea c2be f7ea 97ba 143e de3e 76ea dbbd
000001d0: 7b46 ba3e 2c00 fe3e 0c6a 0d3f 6e9b 5a3e
000001e0: d387 e8bd cd5b 11be e564 653f 6f32 5ebd
000001f0: a2c0 383f 40ef e53e c0f7 56be df43 0abe
00000200: 4449 d4bc 4ff3 893f 9dc8 323e 0a24 073f
00000210: 3d9c 4f3e baf0 bbbe 717b 4abd 9672 86be
00000220: 2d45 233f a81a 3d3e 4e06 a13e 1e05 e13d
00000230: 39ac 3fbe 8559 053e f411 763e 6be5 193e
00000240: 9134 d1be 4e9f 9d3d f3e1 743e 3878 993e
00000250: dd8e 05bd b702 57be 50fe a0bc 7624 813e
00000260: 6f6b 743c f9d5 b33e e6bb e93e 181a aebe
00000270: 3ecb c2bd 3b57 6d3e 472f 4a3e f1f6 4e3f
00000280: 52dc da3e 1dbd 00bd 2d40 a1bb 209d 4cbe
00000290: dd88 7b3f c91c f83e 5b05 093e 1fa8 763e
000002a0: 73f0 5dbe ee37 74bc b314 ef3e 9742 1dbf
000002b0: aeac b63e 665d 92be d21b 76be 381e 00bf
000002c0: 1df2 9fbc 5a60 053f cbb5 993e c128 3bbe
000002d0: 0b63 e23c 0b7e a73e 1893 883d a793 633e
000002e0: 9fbb a13b d830 873e 33c1 043e 0b75 f93e
000002f0: dd72 6d3e ac55 193d 0aea 053c 83fe c63e
00000300: 5de2 ffbe d7ea 84bd f7f1 59be 95bc fb3d
00000310: 406f 1abd e662 90be 345e b1be 03ba 913a
00000320: 50fc d0be df12 553e 73b6 233f 9ac1 b4be
00000330: 61a6 603e 80b6 0736 55da b4be b6d0 413e
00000340: ccfb c3bd 2efc 603e d660 e93e 2d61 cebe
00000350: ba31 353d 6d91 3d3f c4b4 523e b46c 233e
00000360: fb8f c33e 82c3 5a3e f5b5 41bd 318b d1bc
00000370: 6f66 aabe 00c0 04bd 19e5 af3e b331 bf3e
00000380: 2d25 a4be 59dd 903c 806e f13d 7d1a 5ebf
00000390: 2930 993e 4b75 82be dfc9 b83e fb2c cf3e
000003a0: 16aa 8fbd 10d7 bdbd 5326 4a3f c493 4fbd
000003b0: fcab e63e 1bd8 303f b269 973e b84e 18bd
000003c0: 57d7 acbe b002 c93d 7750 513e 6f35 d23e
000003d0: e909 3fbd be9c e8bd 2a19 e23e 09f2 103e
000003e0: cd8a a93e 80ab a63d 1395 eb3e 5286 023f
000003f0: 1fd5 9fbe 15fb 743e fe8a 0c3e c83a 79bc

critic.lin1.bias f4 [64]
-0.15553823 0.2934959 -0.22265224 -0.31737697 0.3538735 -0.05422694 0.08641786 0.047567464
0.5161082 0.20247078 0.025168115 -0.19414142 -0.17087297 -0.30196792 -0.036709867 -0.0034602834
-0.24471803 -0.27399215 -0.18790826 0.2151436 0.3624645 -0.056967665 -0.07930858 0.40376732
-0.23276731 -0.33285123 -0.009607293 0.19715631 -0.38745758 0.2422169 -0.2653011 -0.45365584
0.25175837 -0.53009176 0.2657044 0.33591968 0.123558685 0.29559788 0.012566559 0.05237388
0.2268825 0.52120346 0.26348224 0.041247852 0.12567401 0.2713129 -0.037061732 0.25189245
-0.25073808 -0.16000524 0.025924679 -0.13206747 0.20945975 -0.011594173 -0.15128118 0.20108971
-0.17647572 0.2096979 -0.26089782 -0.26515952 -0.10816383 0.17047648 0.23788145 0.2053937
00000000: 6a45 1fbe 1845 963e f3fe 63be 3c7f a2be
00000010: e82e b53e 111d 5ebd d9fb b03d 1ad6 423d
00000020: ab1f 043f 8054 4f3e 5d2d ce3c 02cd 46be
00000030: 53f9 2ebe 8a9b 9abe 165d 16bd ecc5 62bb
00000040: 5d97 7abe b348 8cbe 066b 40be 9b4e 5c3e
00000050: f294 b93e ed56 69bd 896c a2bd 97ba ce3e
00000060: 8e5a 6ebe 7a6b aabe e867 1dbc 58e3 493e
00000070: d760 c6be b507 783e 8cd5 87be 9445 e8be
00000080: 79e6 803e 18b4 07bf 680a 883e aafd ab3e
00000090: 560c fd3d 9b58 973e f8e3 4d3c fe85 563d
000000a0: e353 683e 976d 053f 25e7 863e 82f3 283d
000000b0: b0b0 003e 86e9 8a3e 0bce 17bd 0cf8 803e
000000c0: be60 80be 6ad8 23be fe5f d43c b23c 07be
000000d0: 9e7c 563e 7cf5 3dbc 74e9 1abe 76ea 4d3e
000000e0: 0db6 34be 0cbb 563e 6694 85be fdc2 87be
000000f0: 0085 ddbd 6391 2e3e 3297 733e ba52 523e

critic.batch_norm.weight f4 [64]
1.2102435 1.1104228 1.2070547 1.1477679 1.2107797 0.9970335 1.2095926 1.222625
1.1645938 0.9906536 1.2082075 1.19761 1.2046129 1.2075893 1.1019809 0.9922768
1.2007917 1.1093012 1.2200319 1.1704684 1.1945066 1.0100256 1.1500736 1.1641513
1.2082527 1.2186615 1.1510963 1.0818441 1.0063802 1.1518972 1.169044 1.2138594
1.1163841 1.2129731 1.1593031 1.2013837 1.197383 1.0739204 1.2099571 1.2010686
0.9928007 1.1302657 1.069388 1.1079035 1.2072074 1.1947665 1.1615089 1.157182
1.1524009 1.2244922 1.1278099 1.0615383 1.2171729 1.064351 1.2037134 1.2020619
1.2211092 1.208159 1.123183 1.1991333 1.2105746 1.0641919 1.0288701 1.2110217
00000000: 42e9 9a3f 5622 8e3f c580 9a3f 0fea 923f
00000010: d4fa 9a3f 963d 7f3f eed3 9a3f fa7e 9c3f
00000020: 6911 953f 799b 7d3f 8ba6 9a3f 494b 993f
00000030: c130 9a3f 4992 9a3f b60d 8d3f da05 7e3f
00000040: 8bb3 993f 95fd 8d3f 012a 9c3f e9d1 953f
00000050: 98e5 983f 8548 813f 9d35 933f e902 953f
00000060: 06a8 9a3f 1afd 9b3f 2057 933f de79 8a3f
00000070: 11d1 803f 5e71 933f 3ca3 953f bf5f 9b3f
00000080: ade5 8e3f b442 9b3f 0b64 943f f1c6 993f
00000090: d943 993f 3976 893f e0df 9a3f 9ebc 993f
000000a0: 3028 7e3f 8cac 903f b5e1 883f c8cf 8d3f
000000b0: c685 9a3f 1cee 983f 53ac 943f 8a1e 943f
000000c0: df81 933f 29bc 9c3f 135c 903f 7de0 873f
000000d0: 52cc 9b3f a73c 883f 4813 9a3f 2add 993f
000000e0: 4e4d 9c3f f4a4 9a3f 76c4 8f3f 337d 993f
000000f0: 1cf4 9a3f 7137 883f 04b2 833f c202 9b3f

critic.batch_norm.bias f4 [64]
0.2071994 0.097803816 0.20897794 0.16049118 0.21358432 -0.0049853865 0.21171696 0.22161259
0.16846216 -0.004931895 0.21098013 0.21021743 0.21828811 0.2098121 0.10396337 -0.0031523712
0.20735683 0.10967448 0.22417481 0.16703235 0.20857844 0.02514811 0.15205449 0.17262
0.21161179 0.22360198 0.16551206 0.08407037 0.006497615 0.16337432 0.16938525 0.20993215
0.1173354 0.2143579 0.1587889 0.21275786 0.21250778 0.07514117 0.2052823 0.21279162
-0.0030851206 0.13286419 0.07234955 0.10624028 0.22050738 0.2053926 0.16542882 0.15731138
0.16435735 0.2261417 0.1279351 0.059890732 0.218626 0.064895615 0.21478185 0.21493417
0.21741366 0.20367424 0.13456553 0.21373351 0.21264523 0.07389568 0.02907742 0.21371862
00000000: 142c 543e 5e4d c83d 50fe 553e cd57 243e
00000010: d9b5 5a3e 745c a3bb 55cc 583e 69ee 623e
00000020: 5881 2c3e bc9b a1bb 2d0b 583e 3d43 573e
00000030: eb86 5f3e fcd8 563e bfea d43d 0398 4ebb
00000040: 5955 543e 049d e03d 158e 653e 870a 2b3e
00000050: 9695 553e 6903 ce3c 2cb4 1b3e 4cc3 303e
00000060: c3b0 583e ebf7 643e fe7b 293e 162d ac3d
00000070: f2e9 d43b 994b 273e 5473 2d3e 74f8 563e
00000080: 8b4d f03d a380 5b3e 8f99 223e 32dd 593e
00000090: a49b 593e 9de3 993d 8635 523e 0ce6 593e
000000a0: bc2f 4abb 8d0d 083e 002c 943d 8194 d93d
000000b0: b0cc 613e 7052 523e 2c66 293e 3c16 213e
000000c0: 4b4d 283e b191 673e 6b01 033e fc4f 753d
000000d0: 7fdf 5f3e fee7 843d c6ef 5b3e b417 5c3e
000000e0: b0a1 5e3e fb8f 503e 8ccb 093e f5dc 5a3e
000000f0: acbf 593e 9e56 973d c533 ee3c 0ed9 5a3e
